lightWeight.pth (torch_old, 516066 bytes, 10 tensors)

conv1.weight f4 [6, 3, 5, 5]
0	0x3d9c5e2c	0.07635149
1	0x3bc12cd6	0.0058952374
2	0x3d9b475a	0.075819686
3	0x3e270164	0.16309124
4	0xbcd98eb0	-0.026557297
5	0xbbe35700	-0.0069378614
6	0x3a3f7674	0.00073037227
7	0x3c4fcb9c	0.012682822
8	0x3e1a9751	0.15096785
9	0x3e18e715	0.14931901
10	0x3cf0ebd4	0.029409327
11	0x3d64eb85	0.05588867
12	0x3dd632e7	0.104589276
13	0x3e2d47d2	0.16921929
14	0x3cd7b5a2	0.026331726
15	0xbd11b9b6	-0.0355775
16	0x3c49e00e	0.012321485
17	0x3e279043	0.16363625
18	0xbc4cb4dd	-0.012494293
19	0x3dbaa6bf	0.091138355
20	0xbca098b7	-0.01960407
21	0xbb0d5678	-0.0021566432
22	0x3e2564ed	0.16151781
23	0x3e00402b	0.12524478
24	0x3d2fc485	0.042912025
25	0xbe078542	-0.13234428
26	0xbd479cd3	-0.048733544
27	0xbd756e1e	-0.05991947
28	0xbdb86925	-0.0900443
29	0x3db46c4b	0.08809718
30	0xbe102074	-0.1407488
31	0x3d7a3e7f	0.061094757
32	0x3c032242	0.008003773
33	0xbdcc8749	-0.09986741
34	0x3ae03564	0.0017105755
35	0xbdd1f4e7	-0.102517895
36	0x3d0a32c4	0.03373982
37	0xbd9bd04d	-0.076080896
38	0xbd5aef73	-0.053451013
39	0xbcbeccfe	-0.023291107
40	0xbe1300f8	-0.14355838
41	0xbbf2912b	-0.0074025593
42	0xbdd98f2a	-0.106230095
43	0x3c31fe1d	0.010863808
44	0x3d491a77	0.049097504
45	0x3d348155	0.044068653
46	0xbdb418ce	-0.087937936
47	0xbdf6344b	-0.12021693
48	0xbe0a45fa	-0.13503256
49	0xbc01bf4a	-0.007919142
50	0xbdc8349b	-0.09775659
51	0x3c73aa4a	0.014872143
52	0x3dc9a2f7	0.09845536
53	0x3dcd4cff	0.100244515
54	0xba2f5944	-0.0006689022
55	0xbd4f592d	-0.050622154
56	0x3dd8e3a0	0.10590291
57	0xbbc03471	-0.0058656265
58	0x3cfa363e	0.030543443
59	0xbd9b5532	-0.07584609
60	0xbd58eec5	-0.052962083
61	0x3deae5db	0.11469623
62	0xbd323507	-0.043507602
63	0x3d289556	0.041158043
64	0xbde2012d	-0.110353805
65	0xbdae4e52	-0.08511032
66	0x3dd5cec4	0.10439828
67	0x3dc19c47	0.09453636
68	0xbc917c14	-0.01775936
69	0xbd86ecfc	-0.0658817
70	0xbc721ab6	-0.014776876
71	0xbdec55a7	-0.115397744
72	0x3d6e0789	0.058112655
73	0xbd07718b	-0.033067267
74	0xbd0f6d36	-0.03501626
75	0x3dff6a51	0.1247145
76	0x3c7089ee	0.0146813225
77	0x3e1f4bf7	0.15556322
78	0xbca1583e	-0.019695397
79	0x3e03c9c5	0.12869938
80	0xbcad7fab	-0.02117904
81	0xbcf15dd3	-0.029463684
82	0x3d44372a	0.04790417
83	0x3c95dffb	0.018295279
84	0x3dca94dd	0.09891675
85	0x3da69e52	0.08135666
86	0x3d4776d8	0.048697323
87	0x3cb0f404	0.02160073
88	0x3da6e634	0.081493765
89	0x3e39d1c3	0.18146424
90	0x3db5f1ab	0.08883985
91	0x3dba9573	0.091105364
92	0x3e3d03b3	0.18458442
93	0x3e3fa9e9	0.1871716
94	0x3d03170f	0.032004412
95	0x3d9ea7ca	0.07746847
96	0xbc5f74d8	-0.013638698
97	0x3e0904ff	0.13380812
98	0x3dd7e0ca	0.10540922
99	0x3dce48cb	0.10072478
100	0x3b4ee63f	0.0031570343
101	0x3dfb4a78	0.12270063
102	0xbd5361fb	-0.051607113
103	0xbc941be9	-0.018079715
104	0x3d859e28	0.065243065
105	0x3dc7ef2a	0.09762414
106	0x3d462ae2	0.04838074
107	0xbd2a73f7	-0.0416145
108	0xbd533c98	-0.05157146
109	0xbd9f7218	-0.077854335
110	0x3c9f38ea	0.019436318
111	0xbda5c0e5	-0.08093432
112	0xbd0a5485	-0.03377201
113	0x3e111db6	0.1417149
114	0x3d9c57ba	0.0763392
115	0xbc134c65	-0.008990382
116	0x3dfbca92	0.122944966
117	0xbd66aa2d	-0.056314636
118	0x3d3dd3d8	0.046344608
119	0x3df1433e	0.117804036
120	0x3cc9c30c	0.024629138
121	0x3d945fe1	0.0724485
122	0x3e0152f5	0.12629302
123	0x3db56c36	0.0885853
124	0x3e003a3f	0.12522219
125	0x3cf4eac2	0.029897097
126	0xbdaa8ff2	-0.08328237
127	0x3c389f16	0.011268398
128	0xbda32f20	-0.07967973
129	0xbb495808	-0.0030722637
130	0x3b94a40b	0.004536157
131	0x3dcffd50	0.101557374
132	0x3d1763d2	0.03696043
133	0x3dc41d20	0.09575868
134	0x3c80c526	0.015719008
135	0x3e1b96ce	0.15194246
136	0xbd0a301a	-0.03373728
137	0x3cc2178d	0.02369287
138	0xbd19e655	-0.037573177
139	0x3d87802f	0.06616246
140	0x3cb5729e	0.02214938
141	0x3ca13593	0.019678866
142	0xbd2bd991	-0.041955534
143	0x3d591da8	0.053006798
144	0xbcae892d	-0.021305645
145	0x3e0f300d	0.13983174
146	0x3e031180	0.12799644
147	0x3dcdaf44	0.10043195
148	0xbd3e0a64	-0.046396628
149	0xbd894474	-0.067025095
150	0xbd8aae16	-0.067714855
151	0x3dd6fecf	0.1049782
152	0x3bededf2	0.0072610313
153	0x3b9a2b25	0.0047048503
154	0xbd65df49	-0.056121144
155	0xbd5d7131	-0.054063026
156	0xbcab9eb3	-0.020949697
157	0x3e1d7274	0.15375692
158	0xbbd5217e	-0.0065042367
159	0xbd8634d3	-0.06553044
160	0x3de98ab7	0.11403411
161	0x3e29973b	0.16561596
162	0xbd0ba647	-0.03409412
163	0xbccdb49f	-0.02511054
164	0x3dda03e2	0.10645272
165	0x3d9069de	0.070514426
166	0x3d9ea045	0.07745413
167	0x3df87b6b	0.12132915
168	0xbd66639a	-0.05624733
169	0x3c806b1e	0.015676077
170	0x3e297b47	0.16550933
171	0x3e0944ad	0.13405104
172	0xbc8f0648	-0.01745905
173	0x3e2009b6	0.15628704
174	0x3dc93b9c	0.09825823
175	0x3b8394b9	0.004015532
176	0x3d6e4f46	0.05818107
177	0x3ccb0770	0.02478382
178	0xbde09869	-0.1096657
179	0xbe062b78	-0.1310252
180	0xbd8c07e2	-0.06837441
181	0xbda98b7c	-0.08278558
182	0xbe0fc72a	-0.14040819
183	0xbdb2db6a	-0.08733256
184	0x3d121e28	0.03567329
185	0x3d3c1378	0.045917004
186	0x3c1e4320	0.009659559
187	0xbd5ef15d	-0.0544294
188	0xbde5eb85	-0.112265624
189	0xbda95c9b	-0.08269616
190	0xbd7edba5	-0.062221188
191	0x3db46f3b	0.08810278
192	0xbd1ca37a	-0.03824184
193	0xbe0eb958	-0.1393789
194	0x3d5affe7	0.053466704
195	0x3ddd76ec	0.10813698
196	0x3d4d421a	0.050111867
197	0xbd9d1310	-0.076696515
198	0xbdabaedd	-0.08382962
199	0xbdd76829	-0.10517914
200	0x3ceec34b	0.029145857
201	0xbd8ebae3	-0.069692396
202	0xbd9b9b3c	-0.07597968
203	0xbcb90ee5	-0.02259011
204	0xbdbdcbdb	-0.09267398
205	0xbd239ca2	-0.0399443
206	0x3d82bd8f	0.06383812
207	0xbda3df53	-0.0800158
208	0xbd085f52	-0.03329403
209	0x3d2a4e81	0.041578773
210	0xbbed1b36	-0.00723591
211	0xbdd40905	-0.10353283
212	0xbd997ce4	-0.07494524
213	0xbd428587	-0.047490623
214	0x3d9a6ff5	0.07540885
215	0x3db74688	0.08949
216	0x3e057e13	0.13036375
217	0xbd672084	-0.056427494
218	0x3d14c7ff	0.036323544
219	0x3c88d346	0.016702306
220	0x3d369302	0.04457379
221	0x3e0ed8d7	0.13949905
222	0x3d3cb98a	0.04607538
223	0xbde1a782	-0.11018278
224	0x3de0814c	0.109621614
225	0xbe195593	-0.1497405
226	0x3c9c55d3	0.019083893
227	0xbdc71c77	-0.09722226
228	0xbdfd65c2	-0.123729244
229	0xbe26fd99	-0.16307677
230	0xbd8563d3	-0.065131806
231	0xbb969849	-0.0045957905
232	0xbd9cc2b3	-0.076543234
233	0xbdc73bc6	-0.09728198
234	0xbd8a641e	-0.06757377
235	0x3bc6bffb	0.0060653663
236	0xbc846fb0	-0.016166538
237	0xbe0fb1af	-0.14032625
238	0xbe1afbf9	-0.15135182
239	0xbc6cee95	-0.014461179
240	0xbbbb806d	-0.0057220967
241	0x3db2a02e	0.08721958
242	0xbd9994ac	-0.0749906
243	0xbe2014e6	-0.15632972
244	0xbd91812b	-0.07104715
245	0x3d18e160	0.03732431
246	0x3da0988a	0.078415945
247	0xbdaa7dc2	-0.08324768
248	0xbd131235	-0.035906035
249	0x3d797f37	0.060912337
250	0x3dc1f0d0	0.094697595
251	0xbcb3d951	-0.02195421
252	0x3c746591	0.014916793
253	0x3de24c60	0.110497236
254	0xbd6a2758	-0.057166427
255	0x3ce3e393	0.027818477

conv1.bias f4 [6]
0	0xbc9f7482	-0.019464735
1	0x3cfe9dbc	0.031081073
2	0x3da394f5	0.07987396
3	0xbac1363f	-0.0014740898
4	0x3de0b314	0.109716564
5	0x3dd7d2b9	0.10538239

conv2.weight f4 [16, 6, 5, 5]
0	0xbd091c71	-0.03347439
1	0x3ce734ba	0.028223384
2	0x3d2bbe14	0.04192932
3	0x3ddda807	0.10823064
4	0x3c8534d3	0.01626054
5	0x3d91c24d	0.07117138
6	0x3de3dbe1	0.11125923
7	0xbcd269b1	-0.025685163
8	0x3dfdf115	0.123994984
9	0xbcec3c03	-0.02883721
10	0x3d3c9ff6	0.04605099
11	0x3c94ef6b	0.01818057
12	0x3cf87797	0.030330462
13	0x3dff1345	0.12454847
14	0xbb8dad1f	-0.004323616
15	0x3c7cb0fc	0.015423056
16	0x3d41911b	0.047257524
17	0x3de118f1	0.10991085
18	0x3dc8c715	0.09803597
19	0xbd4b60ec	-0.04965298
20	0xbc9de87a	-0.019275893
21	0x3cfe1461	0.031015577
22	0x3d8c535b	0.06851836
23	0x3db99411	0.090614446
24	0x3dbfbc2d	0.093620636
25	0xbd23fe3c	-0.04003738
26	0x3dcca61c	0.0999262
27	0xbca00f6b	-0.019538602
28	0x3d890a59	0.06691427
29	0x3d9ff81e	0.078109965
30	0x3d8dbed8	0.06921166
31	0x3cd47dfc	0.02593898
32	0x3d9cdf90	0.07659829
33	0x3d5cda3b	0.05391906
34	0xbbe278ad	-0.0069113583
35	0xbd4cadfc	-0.049970612
36	0xbb4a6c6f	-0.0030887385
37	0x3da781e8	0.081790745
38	0x3d9dac4b	0.07698878
39	0x3da92ad8	0.08260125
40	0x3d966554	0.073435456
41	0xbb34d5a9	-0.0027593172
42	0x3d3c99d3	0.046045136
43	0xbd1fd822	-0.03902448
44	0x3b864d6b	0.0040985844
45	0xbd6e49f7	-0.058176007
46	0x3daf04bb	0.08545824
47	0x3d8e9f30	0.06963956
48	0xbbe09499	-0.0068536517
49	0x3d0bb6cc	0.034109876
50	0x3d9394ce	0.072061166
51	0x3d0f6e1d	0.03501712
52	0xbd31c5b8	-0.04340145
53	0x3d4e6498	0.050388902
54	0x3d13c5e5	0.0360774
55	0x3d9735f7	0.0738334
56	0xbd02741b	-0.031849008
57	0x3dafd2f9	0.08585162
58	0x3d1d1303	0.03834821
59	0x3d7be2e4	0.061495677
60	0x3ddd0ae7	0.10793095
61	0xbb9ea8ba	-0.004841891
62	0x3b952d8b	0.0045525483
63	0x3d47d277	0.0487847
64	0x3d86e1ef	0.06586062
65	0x3c550001	0.013000489
66	0x3dd4b229	0.10385544
67	0x3d1de0f6	0.038544618
68	0x3d549ed2	0.051909275
69	0x3dba4739	0.09095616
70	0x3d926b13	0.07149329
71	0xbd51dc99	-0.05123577
72	0x3ca0a762	0.019611064
73	0x3beff041	0.0073223417
74	0x3c8ce7ab	0.017200312
75	0x3d8bdfcb	0.068297945
76	0x3d8f0bfe	0.06984709
77	0x3d4bcef8	0.049757928
78	0xbd08780a	-0.033317603
79	0x3d84539a	0.06461258
80	0xbd47f0bb	-0.048813563
81	0x3ccdf15f	0.025139509
82	0x3cc33c61	0.023832502
83	0xbda6ef4b	-0.0815111
84	0xbd395ba0	-0.045253396
85	0x3d224870	0.039619863
86	0xbc16cffb	-0.00920486
87	0xbcb3499c	-0.021885686
88	0xbd85887c	-0.06520173
89	0x3cd0f9a3	0.025509661
90	0xbcbc8736	-0.023013692
91	0xbb8c44a4	-0.0042806435
92	0x3d439589	0.04775003
93	0x3cf71d71	0.030165406
94	0xbd951b82	-0.07280637
95	0x3d95b003	0.07308962
96	0xbd0620bc	-0.03274606
97	0x3acac64b	0.0015470473
98	0xbd0405d7	-0.03223213
99	0x3d26abe1	0.04069126
100	0x3dacfe54	0.08446947
101	0xba698b23	-0.00089089776
102	0x3d8a3606	0.067485854
103	0x3d8710cb	0.06595
104	0xbd42e856	-0.047584854
105	0x3d2da304	0.042391792
106	0x3d8c7fb2	0.068602934
107	0xbccc7f82	-0.024963144
108	0xbda1a783	-0.078932784
109	0x3c9108f1	0.017704459
110	0x3d531e4b	0.05154256
111	0xbd97a6bd	-0.0740485
112	0x3ceb9e9f	0.02876216
113	0xbc931d0d	-0.017958188
114	0x3b068f55	0.002053221
115	0x3daefe86	0.0854464
116	0x3ca0853a	0.019594777
117	0x3cd4ac4b	0.025961062
118	0x3d14275d	0.036170352
119	0xbd96c220	-0.07361245
120	0x3d8003b9	0.0625071
121	0x3d0a77ae	0.03380554
122	0x3c8fdda9	0.01756175
123	0x3d5b0a43	0.053476583
124	0x3b8e9283	0.0043509617
125	0xbb6bb8fa	-0.003596841
126	0xbd3921ac	-0.045198128
127	0x3d5f2fc3	0.05448891
128	0x3cc64ab2	0.02420554
129	0x3d97a1c7	0.074039035
130	0x3d53f0ea	0.051743425
131	0x3b16a136	0.0022984273
132	0x3b83ab09	0.0040181917
133	0x3d88dd38	0.06682819
134	0xbb818aea	-0.0039533274
135	0xbd4337a3	-0.04766048
136	0xbd71b34b	-0.059008878
137	0x3c4c82d7	0.0124823665
138	0xbd479518	-0.04872617
139	0xbc884be0	-0.016637743
140	0xbd113568	-0.035451323
141	0xbd4d9b4f	-0.050196942
142	0xbc89fc21	-0.016843857
143	0x39ffc65c	0.0004878518
144	0xbd2c0ef4	-0.042006448
145	0x3d6206af	0.055182155
146	0xbcdff36e	-0.027337756
147	0x3d9a1fa6	0.07525568
148	0x3dc9349b	0.09824487
149	0xbc661bc8	-0.0140447095
150	0x3d85a379	0.065253206
151	0xbd69edaa	-0.05711142
152	0x3c8abbbe	0.016935226
153	0x3da3fae5	0.08006839
154	0xba812851	-0.0009853934
155	0xbd5414b3	-0.051777553
156	0xbbf6861a	-0.0075233104
157	0xbd9bf497	-0.07615011
158	0x3c4a065e	0.01233062
159	0xbc64d537	-0.01396685
160	0x3cb1d4f7	0.021707995
161	0xbc07d091	-0.008289472
162	0x3d15c77e	0.036567204
163	0xbd380ced	-0.044934202
164	0xbc8f1a8a	-0.01746871
165	0xbd043a6e	-0.032282285
166	0xbd4976bc	-0.0491855
167	0xbd14d0da	-0.03633199
168	0xbcb34807	-0.021884931
169	0x3d21c930	0.039498508
170	0xbd0d9c74	-0.034573033
171	0xbd58b5b5	-0.052907664
172	0x3c9f3c8c	0.01943805
173	0x3d7db3fb	0.06193922
174	0xbcb80bda	-0.022466589
175	0xbd93481f	-0.071914904
176	0x3c33bd96	0.010970494
177	0xba0410be	-0.0005037895
178	0xbc30bb40	-0.010786831
179	0x3d0f5fe4	0.035003558
180	0xbd5a2c75	-0.053265054
181	0xbd1e4ae2	-0.038645633
182	0x3d3e4734	0.046454623
183	0xbd80c328	-0.06287223
184	0x3d049297	0.03236636
185	0x3cb4b2e6	0.022057962
186	0x3c5cb22b	0.013470213
187	0x3dbe4708	0.09290892
188	0xbd25354e	-0.04033404
189	0x3d1a9574	0.037740186
190	0x3d070bdd	0.032970298
191	0x3d2ed3d9	0.042682502
192	0x3d357d41	0.044308905
193	0x3d96ca59	0.073628135
194	0x3d4b13d8	0.04957947
195	0x3d06aacb	0.032877725
196	0xbd0901fd	-0.03344916
197	0xbbe6e7b7	-0.0070466655
198	0x3d312e8f	0.043257292
199	0x3da22da5	0.07918862
200	0x3d2b34b8	0.041798323
201	0xbd2483e5	-0.040164847
202	0xbc429e58	-0.011878572
203	0x3a0fe34c	0.0005488887
204	0xbd46d872	-0.048546262
205	0x3d8b7695	0.06809727
206	0x3d7700e2	0.060303576
207	0x3cbba76e	0.022906985
208	0xbd39a28f	-0.045321044
209	0xbd408eb0	-0.047011077
210	0x3d24cd4c	0.04023485
211	0x3d167186	0.036729358
212	0x3c56166f	0.013066872
213	0x3c63214f	0.013862922
214	0x3bda6ce9	0.006665815
215	0xbd6dfed3	-0.058104347
216	0xbd4b1489	-0.04958013
217	0xbc56814e	-0.013092352
218	0x3d2024e4	0.03909768
219	0xbcd3851c	-0.025820307
220	0xbd16e8c0	-0.03684306
221	0xbca4ccc8	-0.020117179
222	0xbbdde98e	-0.0067722267
223	0xbb31963d	-0.0027097606
224	0xbd22ffae	-0.039794616
225	0xbd405412	-0.046955176
226	0x3c467323	0.012112412
227	0x3b5415aa	0.0032361546
228	0x3d9dee5c	0.07711479
229	0x3d2789b2	0.0409028
230	0x3ce6a2b3	0.028153753
231	0x3d426c9f	0.04746687
232	0x3ccc771d	0.024959141
233	0x3c098680	0.008393884
234	0xbc659cf3	-0.01401447
235	0x3d9c5285	0.07632927
236	0xbd28b18a	-0.04118494
237	0xbd613a90	-0.05498749
238	0x3d7449f5	0.059640843
239	0x3d98cd9b	0.07461091
240	0xbd82240f	-0.06354534
241	0xbd0c24da	-0.034214832
242	0x3c71a9a1	0.014749915
243	0xbcb418b9	-0.021984445
244	0xbd4b4a0c	-0.049631163
245	0x3da91d17	0.082575016
246	0x3c7e564a	0.015523503
247	0x3d53312c	0.051560566
248	0x3d8b1b5a	0.06792326
249	0x3ce05633	0.027384853
250	0x3d84796f	0.06468474
251	0x3dafdcaa	0.0858701
252	0xbd179ba0	-0.03701365
253	0xbd5afb37	-0.053462233
254	0x3c3418d9	0.010992252
255	0x3d50f73d	0.051017035

conv2.bias f4 [16]
0	0x3d8cfe91	0.06884492
1	0x3d160caa	0.03663317
2	0xbc0173b8	-0.007901125
3	0x3d76a4c3	0.060215723
4	0x3d0887fc	0.03333281
5	0xbca90f73	-0.02063725
6	0xbc5daae9	-0.013529518
7	0x3db507e4	0.08839396
8	0x3cef7dad	0.029234732
9	0xbb8376ed	-0.00401198
10	0xbd527d3d	-0.051388968
11	0xb9b14fa0	-0.00033819396
12	0x3d8e8caf	0.06960427
13	0xbd462d38	-0.048382968
14	0xbd55f7a9	-0.05223814
15	0x3d56532d	0.052325416

fc1.weight f4 [120, 960]
0	0x3b3305ca	0.0027316683
1	0x3c1b154c	0.009465527
2	0x3c8bad02	0.01705027
3	0x3c9c3554	0.019068398
4	0xbcc92b18	-0.024556682
5	0x3c211a28	0.009832896
6	0xbd153840	-0.036430597
7	0xbccd0f14	-0.025031604
8	0xbc42d775	-0.011892189
9	0xbccd4ed9	-0.025062012
10	0x3c90e897	0.017689032
11	0x3c6c6add	0.014429775
12	0x3c19f719	0.009397292
13	0x3cc32480	0.023821115
14	0x3bb715c7	0.005587313
15	0xbc40116a	-0.011722902
16	0xbd05cf9e	-0.032668702
17	0x3bdd0990	0.0067455247
18	0x3c32d054	0.010913927
19	0x3d036d59	0.032086704
20	0x3cd52003	0.026016241
21	0x3c81a8d2	0.01582757
22	0x3c426346	0.011864489
23	0xbcb6f9e1	-0.022335948
24	0xbc78cad4	-0.015185077
25	0x3c1c1347	0.00952608
26	0xbb5e0a1c	-0.0033880537
27	0xbca397fe	-0.019969936
28	0x3cde0ee5	0.027106712
29	0x3c9f3259	0.019433187
30	0x3ce6b988	0.02816464
31	0x3c22bcc2	0.009932699
32	0xbb3d6900	-0.0028901696
33	0x3b437c1e	0.0029828618
34	0x38f32628	0.0001159425
35	0x3d02fd95	0.031980116
36	0x3bfa3602	0.0076358328
37	0x3c8499f1	0.016186686
38	0x3c730189	0.014831909
39	0xbbe76dff	-0.007062673
40	0xbcb2a7d0	-0.021808535
41	0x3953b9c3	0.0002019173
42	0xbc897c67	-0.016782952
43	0xbccb9835	-0.024852851
44	0x3cc43304	0.023950107
45	0x3cf3455e	0.029696163
46	0x3cbc0578	0.022951826
47	0x3bb22474	0.0054364745
48	0x3aaa0b2a	0.0012973298
49	0xbcb5bfef	-0.022186248
50	0xbbd2c6d8	-0.0064323954
51	0xbc51db9a	-0.012808705
52	0x3ce34b1b	0.027745774
53	0xbca942d4	-0.020661749
54	0xbc065694	-0.008199353
55	0xba99b68d	-0.0011727378
56	0x3c7fdb56	0.015616259
57	0x3a8098d2	0.0009811169
58	0xbc99b98d	-0.018765235
59	0x3d0ac058	0.03387484
60	0xbc059d81	-0.008155228
61	0x3cb3e56d	0.021959985
62	0x3cf44184	0.029816397
63	0x3c394866	0.011308765
64	0xbc5b7b75	-0.013396134
65	0xbcbaf607	-0.022822393
66	0x3b9e07ab	0.0048226914
67	0x3c885a38	0.016644582
68	0x3c75dfeb	0.0150069995
69	0xbb357c75	-0.002769259
70	0xbc88c7f5	-0.01669691
71	0xbcbafcdd	-0.022825653
72	0x3c246539	0.010033899
73	0xbc8747c2	-0.016513709
74	0xbc61b68e	-0.013776435
75	0x3c49185e	0.012273876
76	0x3c40291c	0.011728551
77	0x3a018bfd	0.00049418194
78	0x3cf81891	0.030285152
79	0x3c3d7a8c	0.011564862
80	0x3c8aff24	0.016967364
81	0xbc9bf296	-0.019036572
82	0x3c0a7a6a	0.008452037
83	0xbbd21305	-0.0064109587
84	0x3ba0948f	0.004900522
85	0x3c59d904	0.013296369
86	0x3cbaef8c	0.022819303
87	0x3cfc8cc5	0.030828843
88	0xbcceda1a	-0.025250483
89	0x3cbfa207	0.02339269
90	0xbc855d9e	-0.016279992
91	0xbbcd95c8	-0.006273959
92	0x3962fa8c	0.00021646376
93	0xbce364bb	-0.027757993
94	0x3c809706	0.015697014
95	0x3c2d621e	0.010582475
96	0xbc84ef24	-0.016227312
97	0xbd02d540	-0.031941652
98	0x3c2015ad	0.009770793
99	0xbbd0dcae	-0.0063739633
100	0x3cff00af	0.031128256
101	0x3ce631e7	0.028099967
102	0x3cf8ceb8	0.030372009
103	0xbba273a2	-0.004957632
104	0x3ca3c93a	0.019993413
105	0x3c83f1c5	0.016106496
106	0x3caa7b0f	0.020810632
107	0xbbe82808	-0.00708485
108	0x3c8fbb68	0.017545417
109	0x3c637c12	0.013884561
110	0x3c6c74d7	0.014432154
111	0x3aabb791	0.0013100972
112	0x3cdc9e28	0.026930884
113	0xbc8c74dd	-0.017145569
114	0x3cde206f	0.027115075
115	0xbc5372fe	-0.012905834
116	0xbce1f5f6	-0.027583104
117	0x3cc65388	0.024209753
118	0x3bd95631	0.0066325893
119	0x3cebb40b	0.028772375
120	0x3bcbcd78	0.006219562
121	0xbb6826a2	-0.0035423418
122	0x3c993c72	0.01870558
123	0xbcbd757c	-0.02312731
124	0xbc4cbea5	-0.012496625
125	0x3c3affa2	0.011413487
126	0xbc0dab79	-0.008646839
127	0x3c428e3f	0.011874734
128	0xbcc51f65	-0.024062822
129	0x3c764426	0.015030896
130	0xbc0359a7	-0.00801698
131	0x3b2caed9	0.0026349335
132	0x3cba0e2d	0.022711838
133	0xbba0c2e1	-0.004906044
134	0x3ad79f5f	0.0016450695
135	0x3ae39d4f	0.0017365607
136	0x3c2a228d	0.010384214
137	0x3c6d6b74	0.014490951
138	0xbc44f2bc	-0.012020763
139	0xbcb1e45b	-0.021715334
140	0x3c74de72	0.014945613
141	0xbc262eb0	-0.010142967
142	0x3c627164	0.01382098
143	0x3bb31a30	0.0054657683
144	0x3c74837b	0.0149239255
145	0xbcc05520	-0.02347809
146	0xbcb1d7e4	-0.02170939
147	0xbbe5b5c3	-0.007010193
148	0xba131080	-0.00056100637
149	0x3c71883a	0.014741952
150	0x3c717728	0.014737882
151	0x3c793410	0.015210167
152	0x3c7d5714	0.015462656
153	0xbc10ef5f	-0.008846133
154	0xbc018870	-0.007906064
155	0x3d02c405	0.03192522
156	0xbcbffcda	-0.023435999
157	0xbcbbe1ef	-0.022934882
158	0x3cbb16a8	0.022837952
159	0xbd04193a	-0.03225062
160	0xbb98adf0	-0.004659407
161	0xbc5fc5e1	-0.013658018
162	0xbc9fc057	-0.019500894
163	0xbc9c75a7	-0.01909907
164	0x3c280518	0.010255121
165	0x3c6319d6	0.01386114
166	0x3ca94bfb	0.020666113
167	0x3c551393	0.013005155
168	0xbb705ab9	-0.0036675169
169	0xbc99ed85	-0.018790016
170	0xbc96489f	-0.018345175
171	0x3c983219	0.018578576
172	0xbcd86c4b	-0.026418826
173	0x3bf8d5e0	0.0075938553
174	0x3c35402d	0.011062664
175	0xbb243e20	-0.0025061443
176	0x3c1f540c	0.009724628
177	0x3c9ad5fa	0.01890086
178	0x3ba2581a	0.00495435
179	0x3bc5dd60	0.006038353
180	0x3c840c60	0.016119182
181	0xbbdad26d	-0.0066779167
182	0x3bfd4ef2	0.0077303583
183	0x3c788c03	0.0151701
184	0x3ce84338	0.028352365
185	0x3c0705bb	0.008241112
186	0x3ce4ea67	0.027943803
187	0x3b523445	0.0032074612
188	0x3c9d7a2b	0.019223293
189	0x3c4967f7	0.012292854
190	0x3ce2f1a0	0.027703106
191	0xbb816265	-0.003948497
192	0xb9bc07cc	-0.00035863963
193	0xbbe804ce	-0.007080651
194	0xbbfabb8f	-0.0076517533
195	0x3ac881a6	0.0015297427
196	0xbcdb86a9	-0.02679761
197	0xbca5db61	-0.02024621
198	0xbb648bef	-0.0034873446
199	0x3ce34815	0.027744332
200	0xbbc4054e	-0.0059820777
201	0x3bda735b	0.0066665835
202	0xbb510848	-0.0031895805
203	0xbafa7322	-0.0019107799
204	0x3cb9d7ae	0.022685852
205	0xbaef9ef3	-0.0018281623
206	0xbb60a855	-0.0034280021
207	0xbc6f6e3d	-0.014613685
208	0x3c22d9e1	0.009939642
209	0x3c0013de	0.007817237
210	0xbcf1ca22	-0.02951533
211	0x3c934dcd	0.017981434
212	0x3cdd1073	0.026985383
213	0x3ce1b334	0.027551271
214	0xbc1a0575	-0.009400715
215	0x3c79773e	0.015226183
216	0xba7eb03c	-0.0009715592
217	0xbc00ea35	-0.007868339
218	0xbcc81f37	-0.024428947
219	0x3c5afa60	0.013365358
220	0xbcdb42ec	-0.02676531
221	0xbc55b9e0	-0.013044804
222	0x3b2993e3	0.00258755
223	0x3c666513	0.014062184
224	0xbc5e7113	-0.013576764
225	0x3ce0254c	0.027361535
226	0x3d039ce3	0.03213204
227	0xbcf6110e	-0.03003743
228	0x3d0626e7	0.032751944
229	0x3c7cb557	0.015424094
230	0xbb5fcce8	-0.0034149233
231	0xbbc8ce57	-0.0061281133
232	0xba87f77a	-0.0010373436
233	0x3cdb7019	0.02678685
234	0x3bbf022d	0.005829117
235	0x3caa79e7	0.02081008
236	0xbca3a707	-0.019977106
237	0x3c173592	0.009229081
238	0xbbebfb97	-0.0072016227
239	0xbc07e9db	-0.008295502
240	0x395477c5	0.00020262513
241	0xbc0e01f0	-0.008667454
242	0x3c1ae80f	0.009454741
243	0x3cb34a97	0.021886153
244	0x3cffb98c	0.031216405
245	0x3baac51b	0.005211485
246	0x3c2ae5ab	0.010430734
247	0x3c8ef5b1	0.01745114
248	0x3cfaca2c	0.030613981
249	0x3b2cfdc3	0.002639637
250	0xbcae1824	-0.021251746
251	0xbcc1c3a3	-0.023652857
252	0x3cf9e0e6	0.030502748
253	0x3c61510f	0.013752236
254	0xbb990ddd	-0.004670842
255	0xbccecbbb	-0.02524363

fc1.bias f4 [120]
0	0x3a868748	0.0010263706
1	0xbc83fa19	-0.016110467
2	0x3c4c33b1	0.012463496
3	0x3b93ac5c	0.004506631
4	0x3c03bf25	0.008041178
5	0xbb04a415	-0.0020239402
6	0x3d029145	0.03187682
7	0x3c5d4d10	0.013507143
8	0x3c176f3a	0.009242827
9	0x3c063cf8	0.008193247
10	0x3c4bb7ab	0.012433927
11	0xbba02c35	-0.0048880824
12	0xbc3acfba	-0.011402065
13	0x3cec0ded	0.028815234
14	0xbc2958b2	-0.010336088
15	0x3cab3618	0.020899817
16	0xbcbafe95	-0.022826472
17	0xbb16b951	-0.002299864
18	0x3cce7116	0.025200408
19	0xbc75dabc	-0.015005764
20	0xbcf8332d	-0.03029784
21	0xbcd1b083	-0.025596863
22	0x3c55edf4	0.013057221
23	0xbc7c54ff	-0.015401124
24	0x3c664b5c	0.014056053
25	0x3c24d978	0.010061614
26	0xbb93bd55	-0.004508654
27	0xbcbf0643	-0.023318416
28	0x3cfe6dd8	0.031058237
29	0x3c8a8de7	0.016913367
30	0xbbc607c0	-0.0060434043
31	0xbcb4fa1c	-0.022091918
32	0x3b23c662	0.0024990072
33	0x3ba01054	0.004884759
34	0x3ae7cdc5	0.0017685225
35	0xbd006ea7	-0.031355526
36	0x3c68c589	0.014207252
37	0x3c6b5f10	0.014365926
38	0xbca2c49c	-0.019869141
39	0x3bcfaa40	0.006337434
40	0xbc86aa28	-0.016438559
41	0xbd0209e3	-0.03174771
42	0x3bb05ecb	0.005382394
43	0x3bdcf33d	0.0067428635
44	0x3aad1b32	0.0013206957
45	0x3ca5282f	0.020160763
46	0x3a5416c8	0.0008090553
47	0xbcbb73cf	-0.02288237
48	0xbc505100	-0.012714624
49	0x3cc48098	0.0239871
50	0xbb88ecae	-0.004178605
51	0xb9d3d12a	-0.00040400896
52	0x3ca84508	0.02054073
53	0x3ba45cc8	0.005015943
54	0x3cccada5	0.024985144
55	0xbcc5ffd5	-0.024169842
56	0xbcbf7961	-0.023373308
57	0xbb8a70ec	-0.004224887
58	0xbb65ff4b	-0.0035094793
59	0x3c02614f	0.0079577705
60	0x3c977bcf	0.018491654
61	0x3ce3704a	0.027763505
62	0x3ccd2a6d	0.025044644
63	0xb83dafc8	-4.522482e-05
64	0x3ca45302	0.020059112
65	0x3cc7a21a	0.024369288
66	0xbcc5b207	-0.024132742
67	0x3cb090d3	0.021553433
68	0xbc97df3e	-0.018539067
69	0xbc502f0f	-0.012706532
70	0x3d0f2a18	0.034952253
71	0xbc72457f	-0.014787077
72	0x3c866fab	0.01641067
73	0x3bff4ae1	0.0077909087
74	0xba7fb593	-0.00097545347
75	0xbceb97e8	-0.028758958
76	0x3cb24c1f	0.021764813
77	0x3ceab758	0.028651878
78	0xbc8782da	-0.016541887
79	0xbcbaffb8	-0.022827014
80	0xbcc6ebb1	-0.024282308
81	0xbc8e2103	-0.017349726
82	0xbccc3bc5	-0.024930844
83	0xbc43ba4f	-0.011946275
84	0x3ceb7548	0.028742447
85	0x3a2cebad	0.0006596398
86	0xbc7b3362	-0.015332075
87	0x3d310dce	0.043226056
88	0x3b9100e7	0.0044251564
89	0x3c9713e3	0.0184421
90	0x3cd8ec8e	0.026479986
91	0x3cc762da	0.024339128
92	0xbce8139c	-0.028329663
93	0x3cab0fa5	0.020881483
94	0xbbbf54ba	-0.0058389576
95	0xbbfc6ab0	-0.007703148
96	0xbae4ea57	-0.0017464858
97	0xbcc6ee4e	-0.024283554
98	0x3c6cebd8	0.014460526
99	0x3c71de6b	0.014762501
100	0x3cf2f1ba	0.02965628
101	0xbc2d0844	-0.010561053
102	0x3c29b8f1	0.010359035
103	0x3ca4d963	0.02012319
104	0xbc6a6446	-0.014306134
105	0x3ad80b19	0.00164828
106	0xbba70ad5	-0.005097727
107	0x3ccfcc49	0.025365965
108	0x3ce193ba	0.027536262
109	0xbb27958b	-0.0025571312
110	0x3cef3ee6	0.029204797
111	0x3d05dafe	0.03267955
112	0x3ad140eb	0.0015964782
113	0xb9c77669	-0.0003804446
114	0xbb3298e5	-0.0027251777
115	0xbbc1d549	-0.005915318
116	0x3a85bf38	0.0010204082
117	0x3c98f54e	0.018671658
118	0x3c795b26	0.015219485
119	0xbd017645	-0.03160693

fc2.weight f4 [84, 120]
0	0x3d4ed51b	0.050496202
1	0xbd876260	-0.066105604
2	0xbd62760e	-0.055288367
3	0xbdbad469	-0.09122545
4	0xbd1c549e	-0.038166635
5	0xbcca6435	-0.024705986
6	0x3db4ecaf	0.08834206
7	0x3d4e271a	0.05033026
8	0xbcf63538	-0.030054674
9	0xbd876f2d	-0.06613002
10	0xbca8e76f	-0.020618169
11	0x3d9a516d	0.07535062
12	0x3db28905	0.08717541
13	0xbc65ba95	-0.014021535
14	0xb93a37f7	-0.00017759191
15	0x3d08b8f2	0.033379503
16	0x3d48956c	0.048970625
17	0xbd5daf10	-0.05412203
18	0xbbbe72e1	-0.0058120345
19	0x3d84d368	0.06485635
20	0x3d8cbbfc	0.06871793
21	0xbd35f32d	-0.044421364
22	0xbcc20e06	-0.023688328
23	0xbba2a604	-0.0049636383
24	0x3db78af0	0.08962047
25	0xbc68e0a0	-0.014213711
26	0xbc4edd77	-0.0126260435
27	0x3db246e4	0.087049276
28	0xbce1650a	-0.027514
29	0x3d777e51	0.0604232
30	0x3cd6cb64	0.026220031
31	0x3d9db17c	0.07699868
32	0xbd94ca64	-0.072651654
33	0x3d17de9e	0.03707754
34	0xbd69d185	-0.05708458
35	0xbdabed8a	-0.08394916
36	0x3ca89e9f	0.020583449
37	0x3caa68bf	0.0208019
38	0x3bbff018	0.005857479
39	0x3a240b57	0.0006257793
40	0xbd47d6af	-0.048788723
41	0x3c0ac27f	0.008469223
42	0x3d16b1f5	0.036790807
43	0x3d76d17c	0.060258374
44	0xbdb7ff83	-0.08984282
45	0x3c35c9fb	0.011095519
46	0xbd941e26	-0.07232313
47	0xbd3b82a1	-0.045778874
48	0xbb078c13	-0.0020682856
49	0xbd0da144	-0.034577623
50	0xbda22364	-0.079169065
51	0x3db8631c	0.090032786
52	0x3da79039	0.08181805
53	0xbd2460ee	-0.0401315
54	0xbd85b85c	-0.065293044
55	0x3c7735aa	0.015088478
56	0xbd9a790a	-0.075426176
57	0x3bd378d4	0.006453613
58	0x3d097725	0.03356089
59	0x3d4fa3b7	0.05069324
60	0xbd203601	-0.039114002
61	0xbd674879	-0.0564656
62	0xbd5a5f28	-0.053313404
63	0x3bef4e41	0.0073030298
64	0xbd038f8e	-0.032119326
65	0x3cac161c	0.021006636
66	0x3db77582	0.0895796
67	0xbd9e06b0	-0.07716119
68	0xbc937517	-0.018000169
69	0x3db567a4	0.088576585
70	0xbc22e333	-0.009941864
71	0x3c8f576a	0.017497737
72	0x3b0c4df9	0.002140878
73	0xbda5dbe3	-0.08098581
74	0x3d5cafc2	0.053878553
75	0x3daffb36	0.085928366
76	0x3d47090e	0.04859262
77	0x3ca12899	0.019672679
78	0xbd3ba1d5	-0.045808632
79	0x3d7fb57f	0.062428948
80	0x3da51f43	0.08062603
81	0xbd3cd69a	-0.046103097
82	0x3d363e64	0.044493094
83	0x3d1767e5	0.036964316
84	0x3d1a631e	0.03769218
85	0xbd6dab92	-0.05802495
86	0xbdb36109	-0.08758742
87	0x3c311423	0.010808024
88	0x3d2ffc10	0.042964995
89	0xbc3af1cc	-0.011410188
90	0x3d82e1ae	0.06390701
91	0xbdaa1fc2	-0.083068386
92	0x3d00d453	0.03145249
93	0xbdb11100	-0.086458206
94	0xbd63ca82	-0.05561305
95	0xbbd41f1b	-0.0064734346
96	0xbd138791	-0.036017958
97	0xbd1e5dc1	-0.03866363
98	0xba5a1ea1	-0.0008320604
99	0xbd8a57b5	-0.0675501
100	0x3c009858	0.007848822
101	0x3d5a6cf2	0.053326555
102	0x3ca5fa7a	0.020261038
103	0x3d87a4f9	0.06623263
104	0xbcf53893	-0.029934203
105	0xbd2bd450	-0.041950524
106	0xbc145827	-0.00905422
107	0xbbae9c89	-0.005328719
108	0xbd89648c	-0.06708631
109	0xbd5f265a	-0.054479934
110	0xbd4a49b7	-0.049386706
111	0x3d29d029	0.041458283
112	0x3db3210b	0.08746537
113	0xbcf73397	-0.030175967
114	0x3d6ca72d	0.05777662
115	0x3cf552f1	0.029946776
116	0x3d311128	0.043229252
117	0xbd2b8d5f	-0.04188287
118	0x3b6d54ad	0.00362138
119	0x3da94bf7	0.08266442
120	0x3d9a99e8	0.075488865
121	0xbd08f388	-0.033435374
122	0xbd5ae8c1	-0.053444628
123	0xbd1c6584	-0.03818275
124	0xbd79a036	-0.060943805
125	0x3d6be0ad	0.057587314
126	0x3cf98c9c	0.030462556
127	0xbd1f3ae3	-0.038874518
128	0x3c69643f	0.014245092
129	0xbdab60d1	-0.08368076
130	0x3d072231	0.03299159
131	0x3cd19459	0.025583433
132	0x3d9db603	0.077007316
133	0xbd8553eb	-0.06510147
134	0x3db6aa67	0.089192204
135	0x3db71ae1	0.089406736
136	0x3d57ea6d	0.0527138
137	0xbbf766a8	-0.0075500794
138	0xbdb20a08	-0.086933196
139	0x3daba616	0.08381288
140	0xbd381414	-0.044941023
141	0xbc45325a	-0.0120359305
142	0xbcd8edfe	-0.026480671
143	0xbd0609c3	-0.032724153
144	0x3dc88f51	0.097929604
145	0xbdbb005a	-0.091309264
146	0x3ce04366	0.027375888
147	0xbbcca26c	-0.006244948
148	0x3d903f00	0.07043266
149	0xbccfacba	-0.025350917
150	0xbd00f8d7	-0.031487312
151	0x3cffaa68	0.031209186
152	0xbd5852f3	-0.05281348
153	0x3d39c335	0.04535218
154	0x3cde05c3	0.027102357
155	0xbd5b9508	-0.053608924
156	0xbce45a37	-0.027875049
157	0xbd4f19e7	-0.05056181
158	0x3d77b1b1	0.060472194
159	0xbd82cad4	-0.06386343
160	0xbd91d64f	-0.07120954
161	0x3d2e6079	0.042572472
162	0xbd7dadeb	-0.06193344
163	0xbd6dd1cf	-0.058061417
164	0xbd10b8a4	-0.035332337
165	0xbc2e4d55	-0.010638555
166	0xbd0efa6c	-0.03490679
167	0xbcd4cee8	-0.025977567
168	0xbd9ec69d	-0.07752726
169	0xbd302513	-0.043004107
170	0xbd2dd279	-0.04243705
171	0x3d26869f	0.04065573
172	0xbd858fca	-0.06521566
173	0x3de2f434	0.11081734
174	0xbd93c961	-0.07216144
175	0x3cf11d1e	0.02943283
176	0xbcdb8c68	-0.02680035
177	0x3d789db2	0.060697265
178	0x3d228277	0.039675202
179	0xbd95acde	-0.073083624
180	0xbd8ee329	-0.06976921
181	0xbd758b75	-0.05994745
182	0x3d88ce10	0.06679928
183	0x3c79dee7	0.015250898
184	0x3d66812d	0.056275535
185	0xbd9fc291	-0.078007825
186	0xbcd83aeb	-0.026395282
187	0x3d4c1079	0.049820397
188	0xbdb64fd2	-0.08901943
189	0xbd8892b5	-0.06668607
190	0x3da634b6	0.081155226
191	0x3d060eda	0.032729007
192	0xbd7e8da1	-0.062146787
193	0x3da861fa	0.082218125
194	0xbd827e71	-0.06371773
195	0xbd9963a0	-0.07489705
196	0x3a9f258a	0.0012141925
197	0xbd23b593	-0.039968085
198	0x3d6c04cd	0.057621766
199	0xbd4db66c	-0.0502228
200	0xbd6a37f6	-0.057182275
201	0xbd82224f	-0.063542
202	0xbd186f3e	-0.037215464
203	0x3d67a0f5	0.056549985
204	0xbd9cc07a	-0.076538995
205	0x3daa49c0	0.08314848
206	0x3d2f6fab	0.042831104
207	0x3dac35e5	0.08408717
208	0x3dc2ee28	0.09518081
209	0xbd1205fb	-0.035650235
210	0x3d8fea7e	0.07027148
211	0xbd09236e	-0.033481054
212	0xbc01e9ac	-0.007929247
213	0xbb558b96	-0.003258442
214	0x3ce229f6	0.0276079
215	0x3d2c898b	0.04212336
216	0xbd7cbe67	-0.06170502
217	0xbd74b6ff	-0.05974483
218	0xbdc11460	-0.09427714
219	0xbd8d3a83	-0.06895926
220	0x3d7cd6b2	0.061728187
221	0x3da657c7	0.08122211
222	0xbda7c435	-0.081917204
223	0xbcbce75c	-0.02305954
224	0x3da70950	0.08156073
225	0xbbf9982e	-0.007617018
226	0x3d433874	0.04766126
227	0xbd6393fc	-0.05556105
228	0xbc2ebd9d	-0.0106653245
229	0xbd28286f	-0.041054185
230	0xbc4a7b42	-0.0123584885
231	0x3bf235b0	0.007391654
232	0xbcd12424	-0.025529929
233	0xbd844cd6	-0.06459968
234	0xbcb8c7e7	-0.022556258
235	0x3d92a507	0.07160383
236	0x3da1ab7a	0.07894035
237	0xbccb3fd1	-0.024810703
238	0xbd8d787e	-0.06907748
239	0xbcda49ff	-0.026646612
240	0x3d68b73f	0.056815382
241	0xbd5c8c6d	-0.053844858
242	0x3d549bc5	0.051906366
243	0xbc1f01a9	-0.009704986
244	0x3cb8a2f3	0.022538638
245	0x3d5e15ca	0.05422
246	0x3d865322	0.06558825
247	0x3d9fcd15	0.07802788
248	0xbca8903d	-0.02057659
249	0xbd4248dc	-0.047432765
250	0xbdac94b6	-0.08426802
251	0x3da023d1	0.078193314
252	0xbd8caf78	-0.068694055
253	0xbda1311a	-0.078706935
254	0x3c812d98	0.015768811
255	0xbc6102e3	-0.013733598

fc2.bias f4 [84]
0	0x3cac4dbe	0.021033164
1	0x3dc41470	0.09574211
2	0x3c958ae9	0.018254714
3	0x3cd28b31	0.025701137
4	0xbd6dc057	-0.058044758
5	0x3da31cca	0.079644755
6	0xbdb55d2c	-0.08855662
7	0xb93c1028	-0.00017935096
8	0xbd996f3a	-0.07491918
9	0xbdae02cb	-0.084966265
10	0x3d3c6e80	0.04600382
11	0xbd5c22f2	-0.053744264
12	0xbd1fa604	-0.038976684
13	0xbc7ce580	-0.015435576
14	0xbd057ebd	-0.03259157
15	0x3d680bab	0.056651752
16	0x3df1fa36	0.11815302
17	0x3dcd2007	0.10015874
18	0x3d61ff74	0.05517526
19	0xbd3d2106	-0.04617407
20	0xbca32065	-0.019912908
21	0x3ce2a5dc	0.027666979
22	0xbd10d615	-0.035360415
23	0xbb35ae6a	-0.0027722367
24	0x3db48444	0.0881429
25	0xbd27998a	-0.04091791
26	0x3d8c39ac	0.068469375
27	0x3d8646bd	0.06556461
28	0x3cb8f8fd	0.022579664
29	0xbd9d7b3b	-0.0768952
30	0x3a60ca9b	0.00085751124
31	0xbc86cc3d	-0.01645481
32	0x3dc1eae9	0.09468634
33	0xbcf29611	-0.029612573
34	0x3d536021	0.051605348
35	0x3db9f182	0.09079267
36	0x3ce77634	0.028254606
37	0x3da3e3be	0.08002423
38	0xbc65a8b2	-0.014017271
39	0x3d1e3b6c	0.038630888
40	0xbdbd246c	-0.092354625
41	0x3d4d2b04	0.05008985
42	0x3d764046	0.06011989
43	0x3ccfb6f7	0.0253558
44	0x3d066011	0.03280646
45	0xbd8df33c	-0.06931159
46	0x3d9e92d3	0.07742848
47	0x3dc3a964	0.09553793
48	0x3d968e98	0.07351416
49	0x3d170576	0.036870442
50	0x3dee28a1	0.11628843
51	0x3d2d47ab	0.042304676
52	0xbc9a3410	-0.018823653
53	0xbc2a7c53	-0.010405618
54	0x3d89c11e	0.06726287
55	0x3c7b1e64	0.01532707
56	0x3d4af470	0.04954952
57	0xbd9efc79	-0.07762999
58	0x3cd98e5d	0.026557142
59	0xbce21f34	-0.02760277
60	0x3d29a635	0.041418273
61	0x3da21226	0.07913618
62	0xbd71fcbc	-0.059078917
63	0x3db9c640	0.09071016
64	0x3db5fb4a	0.0888582
65	0x3d869f11	0.06573308
66	0xbd304e9c	-0.043043718
67	0xbd972159	-0.073794074
68	0x3db683db	0.08911868
69	0x3d937cea	0.0720156
70	0x3d988666	0.074475095
71	0x3dd1fb81	0.10253049
72	0xbbdb1ff9	-0.006687161
73	0xbd6c8d63	-0.057752024
74	0xbdbb4707	-0.09144407
75	0x3d2f2dbf	0.042768236
76	0xbd4bdf18	-0.049773306
77	0x3da17fa0	0.07885671
78	0x3da463b2	0.08026828
79	0x3db72fa8	0.089446366
80	0xbb701bc0	-0.0036637634
81	0x3d7ef1ad	0.0622422
82	0x3dbfbcb5	0.09362165
83	0xbd130eb2	-0.035902686

fc3.weight f4 [3, 84]
0	0x3dc0f825	0.0942233
1	0xbddf5a29	-0.109058686
2	0xbe2e2de0	-0.17009687
3	0xbdf68c41	-0.1203847
4	0xba064c1e	-0.00051230367
5	0xbd4970d7	-0.049179878
6	0xbd01fe6c	-0.031736776
7	0x3e083151	0.13300063
8	0x3dbdbef8	0.0926494
9	0x3d09a1b5	0.03360148
10	0x3de1f91d	0.11033843
11	0x3d7ffc1f	0.0624963
12	0xbd5d5371	-0.054034654
13	0x3d95adfa	0.07308574
14	0x3d8dbb7b	0.06920525
15	0x3d439acb	0.047755044
16	0x3e1d2f19	0.15349998
17	0x3e02c182	0.1276913
18	0xbcf69ba5	-0.030103514
19	0xbcf08aa9	-0.029362993
20	0x3dbefe2b	0.093258224
21	0xbd704dd7	-0.058667984
22	0x3d401a8b	0.046900313
23	0xbdc95ced	-0.09832177
24	0x3e351ccc	0.17686766
25	0xbd43bd2a	-0.047787823
26	0x3deb5a6c	0.11491856
27	0xbd9341c1	-0.07190276
28	0xbd297b35	-0.041377265
29	0xbdb30bfe	-0.08742522
30	0x3c8f5981	0.017498733
31	0x3d26c3a9	0.04071394
32	0x3c2c9849	0.0105343545
33	0xbdeb09fb	-0.11476513
34	0x3d676930	0.0564968
35	0xbcd07001	-0.025444033
36	0xbcdc6f10	-0.026908427
37	0x3cda119f	0.02661973
38	0x3d0a6782	0.03379012
39	0xbbb771b3	-0.005598271
40	0x3de0a8ef	0.109697215
41	0x3c6dc1bf	0.014511525
42	0xbd0bcb23	-0.034129273
43	0x3d80b9b8	0.06285423
44	0x3db6c44f	0.08924162
45	0x3c141fc3	0.009040776
46	0xbd84f852	-0.06492676
47	0x3dc09a01	0.09404374
48	0x3d09abd1	0.033611123
49	0x3cd870df	0.026421009
50	0x3e241e54	0.16027194
51	0xbd9df0f6	-0.07711975
52	0x3db85545	0.09000639
53	0x3db034ad	0.08603797
54	0x3dd57a4c	0.10423717
55	0xbe10e16b	-0.1414849
56	0xbc4e3f5e	-0.01258835
57	0x3db6e71e	0.08930801
58	0x3d7c762b	0.06163613
59	0xbd856400	-0.06513214
60	0x3de8c4c8	0.11365658
61	0x3d7a13db	0.061054092
62	0xbdda8642	-0.10670139
63	0x3db08e07	0.086208396
64	0xbe131647	-0.14363967
65	0x3e15f50e	0.14644262
66	0xbe28fc94	-0.16502601
67	0xbe05a1d4	-0.13050014
68	0x3df674d8	0.12034005
69	0x3c8efb6b	0.01745387
70	0x3d877e30	0.06615865
71	0x3d1041ab	0.035218876
72	0xbd778cc8	-0.060436994
73	0xbdca7ddb	-0.09887286
74	0xbc0cd05b	-0.008594598
75	0xbdb21535	-0.08695451
76	0xbe1881b8	-0.14893234
77	0x3e031ea0	0.12804651
78	0x3c45206e	0.012031658
79	0xbe11e0aa	-0.14245859
80	0x3d0fd93c	0.03511928
81	0x3c3142d2	0.010819154
82	0x3e3aee8f	0.18255065
83	0xbd8c7adc	-0.06859371
84	0x3d82d5f4	0.063884646
85	0x3d9e9d9e	0.07744907
86	0x3e126112	0.14294842
87	0xbd439afd	-0.04775523
88	0x3d95e886	0.07319741
89	0x3e0d896f	0.13821958
90	0x3d0bd27c	0.03413628
91	0xbd8130f6	-0.06308167
92	0xbcbaceb6	-0.022803646
93	0x3de6b970	0.11265838
94	0xbda0b605	-0.078472175
95	0xbdcc6e3f	-0.09981965
96	0x3d98b33d	0.07456062
97	0xbd994ab7	-0.07484954
98	0xbd8cc58a	-0.06873615
99	0x3ddf5c7a	0.109063104
100	0xbdff3ca9	-0.12462742
101	0xbcdad60b	-0.026713392
102	0xbc9f12c5	-0.01941813
103	0xbc8c116c	-0.017098151
104	0xbd93c2d8	-0.07214898
105	0x3a30e970	0.0006748652
106	0xbd79d018	-0.06098947
107	0xbcf08d84	-0.029364355
108	0xbdf55f5a	-0.119810775
109	0x3cb68919	0.02228217
110	0x3dde90dc	0.108674735
111	0x3af25ad6	0.0018490206
112	0xbc1e2f30	-0.009654805
113	0xbd3882ae	-0.0450465
114	0x3d114f3c	0.035475954
115	0xbc9e198b	-0.01929929
116	0x3d3971ff	0.04527473
117	0x3d9bb024	0.076019555
118	0x3e2a5280	0.16633034
119	0xbd646d20	-0.055768132
120	0xbd7be7d8	-0.0615004
121	0xbe0e279a	-0.13882294
122	0xbd19bb1b	-0.037531953
123	0xbde273e1	-0.110572584
124	0x3d3ce7ce	0.046119504
125	0x3d886404	0.066597015
126	0xbd0d0bac	-0.03443496
127	0xbc27592f	-0.010214134
128	0xbd9cc73f	-0.07655191
129	0xbd4cd101	-0.05000401
130	0x3dcd6a6e	0.100300655
131	0xbd746fab	-0.059676807
132	0xbd84c5ef	-0.06483065
133	0xbdb2762c	-0.08713946
134	0x3dc8aa24	0.09798077
135	0xbc9cc1c5	-0.019135365
136	0xbe22974e	-0.1587803
137	0xbd34be53	-0.04412682
138	0xbdd28f5c	-0.1028125
139	0x3e526cf4	0.20549375
140	0xbbdf5d7e	-0.006816565
141	0xbd85b2f1	-0.06528271
142	0x3db583aa	0.088630036
143	0x3dd96994	0.106158406
144	0xbd275437	-0.040851798
145	0xbd8a9bd6	-0.067680046
146	0xbc1536f8	-0.009107344
147	0x3dab2957	0.08357494
148	0x3e4b90e0	0.19879484
149	0xbd303000	-0.043014526
150	0x3e00487b	0.12527649
151	0xbe08f7f8	-0.13375843
152	0x3d131cbf	0.035916086
153	0x3e296970	0.16544127
154	0xbd86a394	-0.06574169
155	0xbe05ca31	-0.13065411
156	0x3d62f5a2	0.055410035
157	0xbd8cb72a	-0.06870873
158	0x3dd211d9	0.102573104
159	0xbc8fcc0c	-0.017553352
160	0x3daae4f0	0.083444476
161	0x3cfb7364	0.030694671
162	0x3db51787	0.08842378
163	0x3e1596c5	0.14608295
164	0xbb892b3f	-0.0041860635
165	0xbdbe8dc9	-0.09304387
166	0xbe1ada1c	-0.15122265
167	0x3d6b9e13	0.0575238
168	0x3dcaf1f0	0.09909427
169	0xbdfc4831	-0.12318457
170	0x3e019d00	0.12657547
171	0x3e0394b1	0.1284969
172	0x3daceb2b	0.08443292
173	0xbdd53329	-0.10410149
174	0xbc8af797	-0.016963763
175	0xbc15a344	-0.009133164
176	0x3c9423db	0.018083503
177	0xbda29261	-0.07938076
178	0xbc2a24d5	-0.010384758
179	0xbd9a29a3	-0.07527473
180	0xbd684b99	-0.05671272
181	0x3db67104	0.08908275
182	0xbdc44040	-0.09582567
183	0xbcc52e01	-0.024069788
184	0xbe4207db	-0.18948309
185	0xbdaee9ac	-0.08540663
186	0x3dafc690	0.08582795
187	0x3e2935b4	0.16524392
188	0xbdbff913	-0.09373679
189	0xbb29dcdc	-0.0025918996
190	0x3da9bbf7	0.082878046
191	0x3d8d6d45	0.06905607
192	0x3af16ce4	0.0018419293
193	0xbcfb5bc9	-0.030683415
194	0xbbc1db67	-0.0059160474
195	0xbe08fd73	-0.13377933
196	0x3ccfc600	0.025362968
197	0x3e0e709f	0.13910149
198	0x3d4d77b8	0.050163
199	0x3cb305d1	0.02185336
200	0xbda70478	-0.08155149
201	0x3bec6c66	0.0072150705
202	0xbd0c8c6a	-0.034313597
203	0xbdd3113e	-0.10306023
204	0x3d9d2f53	0.07675042
205	0x3e17da32	0.14829329
206	0x3dafa015	0.08575455
207	0x3c2849a6	0.010271465
208	0x3d11c28f	0.035585936
209	0x3d936f22	0.07198931
210	0xbd45cfe9	-0.04829398
211	0xbaa90f53	-0.0012898244
212	0xbcaddc16	-0.02122311
213	0xbda47e84	-0.080319434
214	0xbd44e1f7	-0.04806706
215	0xbe22c14e	-0.15894052
216	0x3ca33318	0.019921824
217	0x3d1d845b	0.038456302
218	0xbe1105fc	-0.14162439
219	0xbcf1ac6f	-0.029501168
220	0xbcf688ed	-0.030094588
221	0x3d919512	0.07108511
222	0xbd1c3d1a	-0.03814421
223	0x3c028302	0.007965805
224	0x3cccbd8e	0.02499273
225	0x3dbb1174	0.09134188
226	0xbdac6a5d	-0.08418725
227	0x3da67f89	0.08129794
228	0xbd80d697	-0.0629093
229	0xbdcd6661	-0.10029293
230	0x3da4a4c0	0.08039236
231	0xbd3c2656	-0.045934997
232	0x3c07a777	0.008279673
233	0xbd5cc913	-0.053902697
234	0x3d21de53	0.039518666
235	0x3e0fe77c	0.14053148
236	0x3ce85d3e	0.028364774
237	0xbd85067e	-0.06495379
238	0x3cffcdb8	0.031226024
239	0xbe07c780	-0.13259697
240	0x3d776512	0.060399123
241	0x3d4dffb8	0.0502927
242	0xbdd4496d	-0.10365567
243	0xbbc04e51	-0.005868711
244	0xbdb363cc	-0.08759269
245	0xbe071ee1	-0.13195373
246	0xbd5e19b1	-0.05422372
247	0xbbbfd8f0	-0.0058547184
248	0x3d826250	0.06366408
249	0x3b13901a	0.002251631
250	0x3d751e67	0.059843447
251	0x3d36d278	0.044634312

fc3.bias f4 [3]
0	0x3e687e9a	0.22704545
1	0x3e24afa5	0.16082628
2	0xbeae3384	-0.34023678
